…
     "iopub.status.busy": "2025-06-01T09:46:22.803902Z",
     "iopub.status.idle": "2025-06-01T09:46:22.811684Z",
     "shell.execute_reply": "2025-06-01T09:46:22.810932Z"
    },
    "papermill": {
     "duration": 0.027515,
     "end_time": "2025-06-01T09:46:22.812765",
     "exception": false,
     "start_time": "2025-06-01T09:46:22.785250",
     "status": "completed"
    },
    "tags": []
   },
   "outputs": [
    {
     "data": {
      "text/plain": [
       "MobileNetV2_SpatialAttention(\n",
       "  (features): Sequential(\n",
       "    (block0): Conv2dNormActivation(\n",
       "      (0): Conv2d(3, 32, kernel_size=(3, 3), stride=(2, 2), padding=(1, 1), bias=False)\n",
       "      (1): BatchNorm2d(32, eps=1e-05, momentum=0.1, affine=True, track_running_stats=True)\n",
       "      (2): ReLU6(inplace=True)\n",
       "    )\n",
       "    (block1): InvertedResidualWithSpatialAttention(\n",
       "      (block): InvertedResidual(\n",
       "        (conv): Sequential(\n",
       "          (0): Conv2dNormActivation(\n",
       "            (0): Conv2d(32, 32, kernel_size=(3, 3), stride=(1, 1), padding=(1, 1), groups=32, bias=False)\n",
       "            (1): BatchNorm2d(32, eps=1e-05, momentum=0.1, affine=True, track_running_stats=True)\n",
       "            (2): ReLU6(inplace=True)\n",
       "          )\n",
       "          (1): Conv2d(32, 16, kernel_size=(1, 1), stride=(1, 1), bias=False)\n",
       "          (2): BatchNorm2d(16, eps=1e-05, momentum=0.1, affine=True, track_running_stats=True)\n",
       "        )\n",
       "      )\n",
       "      (spatial_attention): SpatialAttention(\n",
       "        (conv): Conv2d(2, 1, kernel_size=(7, 7), stride=(1, 1), padding=(3, 3), bias=False)\n",
       "        (sigmoid): Sigmoid()\n",
       "      )\n",
       "    )\n",
       "    (block2): InvertedResidualWithSpatialAttention(\n",
       "      (block): InvertedResidual(\n",
       "        (conv): Sequential(\n",
       "          (0): Conv2dNormActivation(\n",
       "            (0): Conv2d(16, 96, kernel_size=(1, 1), stride=(1, 1), bias=False)\n",
       "            (1): BatchNorm2d(96, eps=1e-05, momentum=0.1, affine=True, track_running_stats=True)\n",
       "            (2): ReLU6(inplace=True)\n",
       "          )\n",
       "          (1): Conv2dNormActivation(\n",
       "            (0): Conv2d(96, 96, kernel_size=(3, 3), stride=(2, 2), padding=(1, 1), groups=96, bias=False)\n",
       "            (1): BatchNorm2d(96, eps=1e-05, momentum=0.1, affine=True, track_running_stats=True)\n",
       "            (2): ReLU6(inplace=True)\n",
       "          )\n",
       "          (2): Conv2d(96, 24, kernel_size=(1, 1), stride=(1, 1), bias=False)\n",
       "          (3): BatchNorm2d(24, eps=1e-05, momentum=0.1, affine=True, track_running_stats=True)\n",
       "        )\n",
       "      )\n",
       "      (spatial_attention): SpatialAttention(\n",
       "        (conv): Conv2d(2, 1, kernel_size=(7, 7), stride=(1, 1), padding=(3, 3), bias=False)\n",
       "        (sigmoid): Sigmoid()\n",
       "      )\n",
       "    )\n",
       "    (block3): InvertedResidualWithSpatialAttention(\n",
       "      (block): InvertedResidual(\n",
       "        (conv): Sequential(\n",
       "          (0): Conv2dNormActivation(\n",
       "            (0): Conv2d(24, 144, kernel_size=(1, 1), stride=(1, 1), bias=False)\n",
       "            (1): BatchNorm2d(144, eps=1e-05, momentum=0.1, affine=True, track_running_stats=True)\n",
       "            (2): ReLU6(inplace=True)\n",
       "          )\n",
       "          (1): Conv2dNormActivation(\n",
       "            (0): Conv2d(144, 144, kernel_size=(3, 3), stride=(1, 1), padding=(1, 1), groups=144, bias=False)\n",
       "            (1): BatchNorm2d(144, eps=1e-05, momentum=0.1, affine=True, track_running_stats=True)\n",
       "            (2): ReLU6(inplace=True)\n",
       "          )\n",
       "          (2): Conv2d(144, 24, kernel_size=(1, 1), stride=(1, 1), bias=False)\n",
       "          (3): BatchNorm2d(24, eps=1e-05, momentum=0.1, affine=True, track_running_stats=True)\n",
       "        )\n",
       "      )\n",
       "      (spatial_attention): SpatialAttention(\n",
       "        (conv): Conv2d(2, 1, kernel_size=(7, 7), stride=(1, 1), padding=(3, 3), bias=False)\n",
       "        (sigmoid): Sigmoid()\n",
       "      )\n",
       "    )\n",
       "    (block4): InvertedResidualWithSpatialAttention(\n",
       "      (block): InvertedResidual(\n",
       "        (conv): Sequential(\n",
       "          (0): Conv2dNormActivation(\n",
       "            (0): Conv2d(24, 144, kernel_size=(1, 1), stride=(1, 1), bias=False)\n",
       "            (1): BatchNorm2d(144, eps=1e-05, momentum=0.1, affine=True, track_running_stats=True)\n",
       "            (2): ReLU6(inplace=True)\n",
       "          )\n",
       "          (1): Conv2dNormActivation(\n",
       "            (0): Conv2d(144, 144, kernel_size=(3, 3), stride=(2, 2), padding=(1, 1), groups=144, bias=False)\n",
       "            (1): BatchNorm2d(144, eps=1e-05, momentum=0.1, affine=True, track_running_stats=True)\n",
       "            (2): ReLU6(inplace=True)\n",
       "          )\n",
       "          (2): Conv2d(144, 32, kernel_size=(1, 1), stride=(1, 1), bias=False)\n",
       "          (3): BatchNorm2d(32, eps=1e-05, momentum=0.1, affine=True, track_running_stats=True)\n",
       "        )\n",
       "      )\n",
       "      (spatial_attention): SpatialAttention(\n",
       "        (conv): Conv2d(2, 1, kernel_size=(7, 7), stride=(1, 1), padding=(3, 3), bias=False)\n",
       "        (sigmoid): Sigmoid()\n",
       "      )\n",
       "    )\n",
       "    (block5): InvertedResidualWithSpatialAttention(\n",
       "      (block): InvertedResidual(\n",
       "        (conv): Sequential(\n",
       "          (0): Conv2dNormActivation(\n",
       "            (0): Conv2d(32, 192, kernel_size=(1, 1), stride=(1, 1), bias=False)\n",
       "            (1): BatchNorm2d(192, eps=1e-05, momentum=0.1, affine=True, track_running_stats=True)\n",
       "            (2): ReLU6(inplace=True)\n",
       "          )\n",
       "          (1): Conv2dNormActivation(\n",
       "            (0): Conv2d(192, 192, kernel_size=(3, 3), stride=(1, 1), padding=(1, 1), groups=192, bias=False)\n",
       "            (1): BatchNorm2d(192, eps=1e-05, momentum=0.1, affine=True, track_running_stats=True)\n",
       "            (2): ReLU6(inplace=True)\n",
       "          )\n",
       "          (2): Conv2d(192, 32, kernel_size=(1, 1), stride=(1, 1), bias=False)\n",
       "          (3): BatchNorm2d(32, eps=1e-05, momentum=0.1, affine=True, track_running_stats=True)\n",
       "        )\n",
       "      )\n",
       "      (spatial_attention): SpatialAttention(\n",
       "        (conv): Conv2d(2, 1, kernel_size=(7, 7), stride=(1, 1), padding=(3, 3), bias=False)\n",
       "        (sigmoid): Sigmoid()\n",
       "      )\n",
       "    )\n",
       "    (block6): InvertedResidualWithSpatialAttention(\n",
       "      (block): InvertedResidual(\n",
       "        (conv): Sequential(\n",
       "          (0): Conv2dNormActivation(\n",
       "            (0): Conv2d(32, 192, kernel_size=(1, 1), stride=(1, 1), bias=False)\n",
       "            (1): BatchNorm2d(192, eps=1e-05, momentum=0.1, affine=True, track_running_stats=True)\n",
       "            (2): ReLU6(inplace=True)\n",
       "          )\n",
       "          (1): Conv2dNormActivation(\n",
       "            (0): Conv2d(192, 192, kernel_size=(3, 3), stride=(1, 1), padding=(1, 1), groups=192, bias=False)\n",
       "            (1): BatchNorm2d(192, eps=1e-05, momentum=0.1, affine=True, track_running_stats=True)\n",
       "            (2): ReLU6(inplace=True)\n",
       "          )\n",
       "          (2): Conv2d(192, 32, kernel_size=(1, 1), stride=(1, 1), bias=False)\n",
       "          (3): BatchNorm2d(32, eps=1e-05, momentum=0.1, affine=True, track_running_stats=True)\n",
       "        )\n",
       "      )\n",
       "      (spatial_attention): SpatialAttention(\n",
       "        (conv): Conv2d(2, 1, kernel_size=(7, 7), stride=(1, 1), padding=(3, 3), bias=False)\n",
       "        (sigmoid): Sigmoid()\n",
       "      )\n",
       "    )\n",
       "    (block7): InvertedResidualWithSpatialAttention(\n",
       "      (block): InvertedResidual(\n",
       "        (conv): Sequential(\n",
       "          (0): Conv2dNormActivation(\n",
       "            (0): Conv2d(32, 192, kernel_size=(1, 1), stride=(1, 1), bias=False)\n",
       "            (1): BatchNorm2d(192, eps=1e-05, momentum=0.1, affine=True, track_running_stats=True)\n",
       "            (2): ReLU6(inplace=True)\n",
       "          )\n",
       "          (1): Conv2dNormActivation(\n",
       "            (0): Conv2d(192, 192, kernel_size=(3, 3), stride=(2, 2), padding=(1, 1), groups=192, bias=False)\n",
       "            (1): BatchNorm2d(192, eps=1e-05, momentum=0.1, affine=True, track_running_stats=True)\n",
       "            (2): ReLU6(inplace=True)\n",
       "          )\n",
       "          (2): Conv2d(192, 64, kernel_size=(1, 1), stride=(1, 1), bias=False)\n",
       "          (3): BatchNorm2d(64, eps=1e-05, momentum=0.1, affine=True, track_running_stats=True)\n",
       "        )\n",
       "      )\n",
       "      (spatial_attention): SpatialAttention(\n",
       "        (conv): Conv2d(2, 1, kernel_size=(7, 7), stride=(1, 1), padding=(3, 3), bias=False)\n",
       "        (sigmoid): Sigmoid()\n",
       "      )\n",
       "    )\n",
       "    (block8): InvertedResidualWithSpatialAttention(\n",
       "      (block): InvertedResidual(\n",
       "        (conv): Sequential(\n",
       "          (0): Conv2dNormActivation(\n",
       "            (0): Conv2d(64, 384, kernel_size=(1, 1), stride=(1, 1), bias=False)\n",
       "            (1): BatchNorm2d(384, eps=1e-05, momentum=0.1, affine=True, track_running_stats=True)\n",
       "            (2): ReLU6(inplace=True)\n",
       "          )\n",
       "          (1): Conv2dNormActivation(\n",
       "            (0): Conv2d(384, 384, kernel_size=(3, 3), stride=(1, 1), padding=(1, 1), groups=384, bias=False)\n",
       "            (1): BatchNorm2d(384, eps=1e-05, momentum=0.1, affine=True, track_running_stats=True)\n",
       "            (2): ReLU6(inplace=True)\n",
       "          )\n",
       "          (2): Conv2d(384, 64, kernel_size=(1, 1), stride=(1, 1), bias=False)\n",
       "          (3): BatchNorm2d(64, eps=1e-05, momentum=0.1, affine=True, track_running_stats=True)\n",
       "        )\n",
       "      )\n",
       "      (spatial_attention): SpatialAttention(\n",
       "        (conv): Conv2d(2, 1, kernel_size=(7, 7), stride=(1, 1), padding=(3, 3), bias=False)\n",
       "        (sigmoid): Sigmoid()\n",
       "      )\n",
       "    )\n",
       "    (block9): InvertedResidualWithSpatialAttention(\n",
       "      (block): InvertedResidual(\n",
       "        (conv): Sequential(\n",
       "          (0): Conv2dNormActivation(\n",
       "            (0): Conv2d(64, 384, kernel_size=(1, 1), stride=(1, 1), bias=False)\n",
       "            (1): BatchNorm2d(384, eps=1e-05, momentum=0.1, affine=True, track_running_stats=True)\n",
       "            (2): ReLU6(inplace=True)\n",
       "          )\n",
       "          (1): Conv2dNormActivation(\n",
       "            (0): Conv2d(384, 384, kernel_size=(3, 3), stride=(1, 1), padding=(1, 1), groups=384, bias=False)\n",
       "            (1): BatchNorm2d(384, eps=1e-05, momentum=0.1, affine=True, track_running_stats=True)\n",
       "            (2): ReLU6(inplace=True)\n",
       "          )\n",
       "          (2): Conv2d(384, 64, kernel_size=(1, 1), stride=(1, 1), bias=False)\n",
       "          (3): BatchNorm2d(64, eps=1e-05, momentum=0.1, affine=True, track_running_stats=True)\n",
       "        )\n",
       "      )\n",
       "      (spatial_attention): SpatialAttention(\n",
       "        (conv): Conv2d(2, 1, kernel_size=(7, 7), stride=(1, 1), padding=(3, 3), bias=False)\n",
       "        (sigmoid): Sigmoid()\n",
       "      )\n",
       "    )\n",
       "    (block10): InvertedResidualWithSpatialAttention(\n",
       "      (block): InvertedResidual(\n",
       "        (conv): Sequential(\n",
       "          (0): Conv2dNormActivation(\n",
       "            (0): Conv2d(64, 384, kernel_size=(1, 1), stride=(1, 1), bias=False)\n",
       "            (1): BatchNorm2d(384, eps=1e-05, momentum=0.1, affine=True, track_running_stats=True)\n",
       "            (2): ReLU6(inplace=True)\n",
       "          )\n",
       "          (1): Conv2dNormActivation(\n",
       "            (0): Conv2d(384, 384, kernel_size=(3, 3), stride=(1, 1), padding=(1, 1), groups=384, bias=False)\n",
       "            (1): BatchNorm2d(384, eps=1e-05, momentum=0.1, affine=True, track_running_stats=True)\n",
       "            (2): ReLU6(inplace=True)\n",
       "          )\n",
       "          (2): Conv2d(384, 64, kernel_size=(1, 1), stride=(1, 1), bias=False)\n",
       "          (3): BatchNorm2d(64, eps=1e-05, momentum=0.1, affine=True, track_running_stats=True)\n",
       "        )\n",
       "      )\n",
       "      (spatial_attention): SpatialAttention(\n",
       "        (conv): Conv2d(2, 1, kernel_size=(7, 7), stride=(1, 1), padding=(3, 3), bias=False)\n",
       "        (sigmoid): Sigmoid()\n",
       "      )\n",
       "    )\n",
       "    (block11): InvertedResidualWithSpatialAttention(\n",
       "      (block): InvertedResidual(\n",
       "        (conv): Sequential(\n",
       "          (0): Conv2dNormActivation(\n",
       "            (0): Conv2d(64, 384, kernel_size=(1, 1), stride=(1, 1), bias=False)\n",
       "            (1): BatchNorm2d(384, eps=1e-05, momentum=0.1, affine=True, track_running_stats=True)\n",
       "            (2): ReLU6(inplace=True)\n",
       "          )\n",
       "          (1): Conv2dNormActivation(\n",
       "            (0): Conv2d(384, 384, kernel_size=(3, 3), stride=(1, 1), padding=(1, 1), groups=384, bias=False)\n",
       "            (1): BatchNorm2d(384, eps=1e-05, momentum=0.1, affine=True, track_running_stats=True)\n",
       "            (2): ReLU6(inplace=True)\n",
       "          )\n",
       "          (2): Conv2d(384, 96, kernel_size=(1, 1), stride=(1, 1), bias=False)\n",
       "          (3): BatchNorm2d(96, eps=1e-05, momentum=0.1, affine=True, track_running_stats=True)\n",
       "        )\n",
       "      )\n",
       "      (spatial_attention): SpatialAttention(\n",
       "        (conv): Conv2d(2, 1, kernel_size=(7, 7), stride=(1, 1), padding=(3, 3), bias=False)\n",
       "        (sigmoid): Sigmoid()\n",
       "      )\n",
       "    )\n",
       "    (block12): InvertedResidualWithSpatialAttention(\n",
       "      (block): InvertedResidual(\n",
       "        (conv): Sequential(\n",
       "          (0): Conv2dNormActivation(\n",
       "            (0): Conv2d(96, 576, kernel_size=(1, 1), stride=(1, 1), bias=False)\n",
       "            (1): BatchNorm2d(576, eps=1e-05, momentum=0.1, affine=True, track_running_stats=True)\n",
       "            (2): ReLU6(inplace=True)\n",
       "          )\n",
       "          (1): Conv2dNormActivation(\n",
       "            (0): Conv2d(576, 576, kernel_size=(3, 3), stride=(1, 1), padding=(1, 1), groups=576, bias=False)\n",
       "            (1): BatchNorm2d(576, eps=1e-05, momentum=0.1, affine=True, track_running_stats=True)\n",
       "            (2): ReLU6(inplace=True)\n",
       "          )\n",
       "          (2): Conv2d(576, 96, kernel_size=(1, 1), stride=(1, 1), bias=False)\n",
       "          (3): BatchNorm2d(96, eps=1e-05, momentum=0.1, affine=True, track_running_stats=True)\n",
       "        )\n",
       "      )\n",
       "      (spatial_attention): SpatialAttention(\n",
       "        (conv): Conv2d(2, 1, kernel_size=(7, 7), stride=(1, 1), padding=(3, 3), bias=False)\n",
       "        (sigmoid): Sigmoid()\n",
       "      )\n",
       "    )\n",
       "    (block13): InvertedResidualWithSpatialAttention(\n",
       "      (block): InvertedResidual(\n",
       "        (conv): Sequential(\n",
       "          (0): Conv2dNormActivation(\n",
       "            (0): Conv2d(96, 576, kernel_size=(1, 1), stride=(1, 1), bias=False)\n",
       "            (1): BatchNorm2d(576, eps=1e-05, momentum=0.1, affine=True, track_running_stats=True)\n",
       "            (2): ReLU6(inplace=True)\n",
       "          )\n",
       "          (1): Conv2dNormActivation(\n",
       "            (0): Conv2d(576, 576, kernel_size=(3, 3), stride=(1, 1), padding=(1, 1), groups=576, bias=False)\n",
       "            (1): BatchNorm2d(576, eps=1e-05, momentum=0.1, affine=True, track_running_stats=True)\n",
       "            (2): ReLU6(inplace=True)\n",
       "          )\n",
       "          (2): Conv2d(576, 96, kernel_size=(1, 1), stride=(1, 1), bias=False)\n",
       "          (3): BatchNorm2d(96, eps=1e-05, momentum=0.1, affine=True, track_running_stats=True)\n",
       "        )\n",
       "      )\n",
       "      (spatial_attention): SpatialAttention(\n",
       "        (conv): Conv2d(2, 1, kernel_size=(7, 7), stride=(1, 1), padding=(3, 3), bias=False)\n",
       "        (sigmoid): Sigmoid()\n",
       "      )\n",
       "    )\n",
       "    (block14): InvertedResidualWithSpatialAttention(\n",
       "      (block): InvertedResidual(\n",
       "        (conv): Sequential(\n",
       "          (0): Conv2dNormActivation(\n",
       "            (0): Conv2d(96, 576, kernel_size=(1, 1), stride=(1, 1), bias=False)\n",
       "            (1): BatchNorm2d(576, eps=1e-05, momentum=0.1, affine=True, track_running_stats=True)\n",
       "            (2): ReLU6(inplace=True)\n",
       "          )\n",
       "          (1): Conv2dNormActivation(\n",
       "            (0): Conv2d(576, 576, kernel_size=(3, 3), stride=(2, 2), padding=(1, 1), groups=576, bias=False)\n",
       "            (1): BatchNorm2d(576, eps=1e-05, momentum=0.1, affine=True, track_running_stats=True)\n",
       "            (2): ReLU6(inplace=True)\n",
       "          )\n",
       "          (2): Conv2d(576, 160, kernel_size=(1, 1), stride=(1, 1), bias=False)\n",
       "          (3): BatchNorm2d(160, eps=1e-05, momentum=0.1, affine=True, track_running_stats=True)\n",
       "        )\n",
       "      )\n",
       "      (spatial_attention): SpatialAttention(\n",
       "        (conv): Conv2d(2, 1, kernel_size=(7, 7), stride=(1, 1), padding=(3, 3), bias=False)\n",
       "        (sigmoid): Sigmoid()\n",
       "      )\n",
       "    )\n",
       "    (block15): InvertedResidualWithSpatialAttention(\n",
       "      (block): InvertedResidual(\n",
       "        (conv): Sequential(\n",
       "          (0): Conv2dNormActivation(\n",
       "            (0): Conv2d(160, 960, kernel_size=(1, 1), stride=(1, 1), bias=False)\n",
       "            (1): BatchNorm2d(960, eps=1e-05, momentum=0.1, affine=True, track_running_stats=True)\n",
       "            (2): ReLU6(inplace=True)\n",
       "          )\n",
       "          (1): Conv2dNormActivation(\n",
       "            (0): Conv2d(960, 960, kernel_size=(3, 3), stride=(1, 1), padding=(1, 1), groups=960, bias=False)\n",
       "            (1): BatchNorm2d(960, eps=1e-05, momentum=0.1, affine=True, track_running_stats=True)\n",
       "            (2): ReLU6(inplace=True)\n",
       "          )\n",
       "          (2): Conv2d(960, 160, kernel_size=(1, 1), stride=(1, 1), bias=False)\n",
       "          (3): BatchNorm2d(160, eps=1e-05, momentum=0.1, affine=True, track_running_stats=True)\n",
       "        )\n",
       "      )\n",
       "      (spatial_attention): SpatialAttention(\n",
       "        (conv): Conv2d(2, 1, kernel_size=(7, 7), stride=(1, 1), padding=(3, 3), bias=False)\n",
       "        (sigmoid): Sigmoid()\n",
       "      )\n",
       "    )\n",
       "    (block16): InvertedResidualWithSpatialAttention(\n",
       "      (block): InvertedResidual(\n",
       "        (conv): Sequential(\n",
       "          (0): Conv2dNormActivation(\n",
       "            (0): Conv2d(160, 960, kernel_size=(1, 1), stride=(1, 1), bias=False)\n",
       "            (1): BatchNorm2d(960, eps=1e-05, momentum=0.1, affine=True, track_running_stats=True)\n",
       "            (2): ReLU6(inplace=True)\n",
       "          )\n",
       "          (1): Conv2dNormActivation(\n",
       "            (0): Conv2d(960, 960, kernel_size=(3, 3), stride=(1, 1), padding=(1, 1), groups=960, bias=False)\n",
       "            (1): BatchNorm2d(960, eps=1e-05, momentum=0.1, affine=True, track_running_stats=True)\n",
       "            (2): ReLU6(inplace=True)\n",
       "          )\n",
       "          (2): Conv2d(960, 160, kernel_size=(1, 1), stride=(1, 1), bias=False)\n",
       "          (3): BatchNorm2d(160, eps=1e-05, momentum=0.1, affine=True, track_running_stats=True)\n",
       "        )\n",
       "      )\n",
       "      (spatial_attention): SpatialAttention(\n",
       "        (conv): Conv2d(2, 1, kernel_size=(7, 7), stride=(1, 1), padding=(3, 3), bias=False)\n",
       "        (sigmoid): Sigmoid()\n",
       "      )\n",
       "    )\n",
       "    (block17): InvertedResidualWithSpatialAttention(\n",
       "      (block): InvertedResidual(\n",
       "        (conv): Sequential(\n",
       "          (0): Conv2dNormActivation(\n",
       "            (0): Conv2d(160, 960, kernel_size=(1, 1), stride=(1, 1), bias=False)\n",
       "            (1): BatchNorm2d(960, eps=1e-05, momentum=0.1, affine=True, track_running_stats=True)\n",
       "            (2): ReLU6(inplace=True)\n",
       "          )\n",
       "          (1): Conv2dNormActivation(\n",
       "            (0): Conv2d(960, 960, kernel_size=(3, 3), stride=(1, 1), padding=(1, 1), groups=960, bias=False)\n",
       "            (1): BatchNorm2d(960, eps=1e-05, momentum=0.1, affine=True, track_running_stats=True)\n",
       "            (2): ReLU6(inplace=True)\n",
       "          )\n",
       "          (2): Conv2d(960, 320, kernel_size=(1, 1), stride=(1, 1), bias=False)\n",
       "          (3): BatchNorm2d(320, eps=1e-05, momentum=0.1, affine=True, track_running_stats=True)\n",
       "        )\n",
       "      )\n",
       "      (spatial_attention): SpatialAttention(\n",
       "        (conv): Conv2d(2, 1, kernel_size=(7, 7), stride=(1, 1), padding=(3, 3), bias=False)\n",
       "        (sigmoid): Sigmoid()\n",
       "      )\n",
       "    )\n",
       "    (block18): Conv2dNormActivation(\n",
       "      (0): Conv2d(320, 1280, kernel_size=(1, 1), stride=(1, 1), bias=False)\n",
       "      (1): BatchNorm2d(1280, eps=1e-05, momentum=0.1, affine=True, track_running_stats=True)\n",
       "      (2): ReLU6(inplace=True)\n",
       "    )\n",
       "  )\n",
       "  (classifier): Sequential(\n",
       "    (0): Dropout(p=0.2, inplace=False)\n",
       "    (1): Linear(in_features=1280, out_features=2, bias=True)\n",
       "  )\n",
       ")"
      ]
     },
     "execution_count": 14,
     "metadata": {},
     "output_type": "execute_result"
    }
   ],
   "source": [
    "model"
   ]
  },
  {
   "cell_type": "code",
   "execution_count": 15,
   "id": "918ad6bc",
   "metadata": {
    "execution": {
     "iopub.execute_input": "2025-06-01T09:46:22.890424Z",
     "iopub.status.busy": "2025-06-01T09:46:22.890173Z",
…
